…
ayers . MaxPool2D ()( x ) x = layers . Dropout ( rate = 0.1 )( x ) x = layers . Flatten ()( x ) x = layers . Dense ( 32 , activation = 'relu' )( x ) outputs = layers . Dense ( 1 , activation = 'sigmoid' )( x ) model = models . Model ( inputs = inputs , outputs = outputs ) model . summary () Model: \"model\" _________________________________________________________________ Layer (type) Output Shape Param # ================================================================= input_1 (InputLayer) [(None, 32, 32, 3)] 0 _________________________________________________________________ conv2d (Conv2D) (None, 30, 30, 32) 896 _________________________________________________________________ max_pooling2d (MaxPooling2D) (None, 15, 15, 32) 0 _________________________________________________________________ conv2d_1 (Conv2D) (None, 11, 11, 64) 51264 _________________________________________________________________ max_pooling2d_1 (MaxPooling2 (None, 5, 5, 64) 0 _________________________________________________________________ dropout (Dropout) (None, 5, 5, 64) 0 _________________________________________________________________ flatten (Flatten) (None, 1600) 0 _________________________________________________________________ dense (Dense) (None, 32) 51232 _________________________________________________________________ dense_1 (Dense) (None, 1) 33 ================================================================= Total params: 103,425 Trainable params: 103,425 Non-trainable params: 0 _________________________________________________________________ \u4e09\uff0c\u8bad\u7ec3\u6a21\u578b # \u8bad\u7ec3\u6a21\u578b\u901a\u5e38\u67093\u79cd\u65b9\u6cd5\uff0c\u5185\u7f6efit\u65b9\u6cd5\uff0c\u5185\u7f6etrain_on_batch\u65b9\u6cd5\uff0c\u4ee5\u53ca
…
793aOutput Shape def summary ( self ): x_input = layers . Input ( shape = MAX_LEN ) output = self . call ( x_input ) model = tf . keras . Model ( inputs = x_input , outputs = output ) model . summary () model = CnnModel () model . build ( input_shape = ( None , MAX_LEN )) model . summary () Model: \"model\" _________________________________________________________________ Layer (type) Output Shape Param # ================================================================= input_1 (InputLayer) [(None, 200)] 0 _________________________________________________________________ embedding (Embedding) (None, 200, 7) 70000 _________________________________________________________________ conv_1 (Conv1D) (None, 196, 16) 576 _________________________________________________________________ pool_1 (MaxPooling1D) (None, 98, 16) 0 _________________________________________________________________ conv_2 (Conv1D) (None, 97, 128) 4224 _________________________________________________________________ pool_2 (MaxPooling1D) (None, 48, 128) 0 _________________________________________________________________ flatten (Flatten) (None, 6144) 0 _________________________________________________________________ dense (Dense) (None, 1) 6145 ================================================================= Total params: 80,945 Trainable params: 80,945 Non-trainable params: 0 _________________________________________________________________ \u4e09\uff0c\u8bad\u7ec3\u6a21\u578b # \u8bad\u7ec3\u6a21\u578b\u901a\u5e38\u67093\u79cd\u65b9\u6cd5\uff0c\u5185\u7f6efit\u65b9\u6cd5\uff0c\u5185\u7f6etrain_on_batch\u65b9\u6cd5\uff0c\u4ee5\u53ca\u
…
odels . Model ( inputs = inputs , outputs = outputs ) model . compile ( optimizer = 'Nadam' , loss = 'binary_crossentropy' , metrics = [ 'accuracy' , \"AUC\" ]) model . summary () Model: \"model\" __________________________________________________________________________________________________ Layer (type) Output Shape Param # Connected to ================================================================================================== input_1 (InputLayer) [(None, 200)] 0 __________________________________________________________________________________________________ embedding (Embedding) (None, 200, 7) 70000 input_1[0][0] __________________________________________________________________________________________________ separable_conv1d (SeparableConv (None, 198, 64) 533 embedding[0][0] __________________________________________________________________________________________________ separable_conv1d_2 (SeparableCo (None, 196, 64) 547 embedding[0][0] __________________________________________________________________________________________________ separable_conv1d_4 (SeparableCo (None, 194, 64) 561 embedding[0][0] __________________________________________________________________________________________________ max_pooling1d (MaxPooling1D) (None, 66, 64) 0 separable_conv1d[0][0] __________________________________________________________________________________________________ max_pooling1d_1 (MaxPooling1D) (None, 39, 64) 0 separable_conv1d_2[0][0] __________________________________________________________________________________________________ max_pooling1d_2 (MaxPooling1D) (None, 27, 64) 0 separable_conv1d_4[0][0] __________________________________________________________________________________________________ separable_conv1d_1 (SeparableCo (None, 64, 32) 2272 max_pooling1d[0][0] __________________________________________________________________________________________________ separable_conv1d_3 (SeparableCo (None, 35, 32) 2400 max_pooling1d_1[0][0] __________________________________________________________________________________________________ separable_conv1d_5 (SeparableCo (None, 21, 32) 2528 max_pooling1d_2[0][0] __________________________________________________________________________________________________ global_max_pooling1d (GlobalMax (None, 32) 0 separable_conv1d_1[0][0] __________________________________________________________________________________________________ global_max_pooling1d_1 (GlobalM (None, 32) 0 separable_conv1d_3[0][0] __________________________________________________________________________________________________ global_max_pooling1d_2 (GlobalM (None, 32) 0 separable_conv1d_5[0][0] __________________________________________________________________________________________________ concatenate (Concatenate) (None, 96) 0 global_max_pooling1d[0][0] global_max_pooling1d_1[0][0] global_max_pooling1d_2[0][0] __________________________________________________________________________________________________ dense (Dense) (None, 1) 97 concatenate[0][0] ================================================================================================== Total params: 78,938 Trainable params: 78,938 Non-trainable params: 0 __________________________________________________________________________________________________ import datetime logdir = \"../../data/keras_model/\" + datetime . datetime . now () . strftime ( \"%Y%m %d -%H%M%
…
 . Dense ( CAT_NUM , activation = \"softmax\" )) return ( model ) def compile_model ( model ): model . compile ( optimizer = optimizers . Nadam (), loss = losses . SparseCategoricalCrossentropy (), metrics = [ metrics . SparseCategoricalAccuracy (), metrics . SparseTopKCategoricalAccuracy ( 5 )]) return ( model ) model = create_model () model . summary () model = compile_model ( model ) Model: \"sequential\" _________________________________________________________________ Layer (type) Output Shape Param # ================================================================= embedding (Embedding) (None, 300, 7) 216874 _________________________________________________________________ conv1d (Conv1D) (None, 296, 64) 2304 _________________________________________________________________ max_pooling1d (MaxPooling1D) (None, 148, 64) 0 _________________________________________________________________ conv1d_1 (Conv1D) (None, 146, 32) 6176 _________________________________________________________________ max_pooling1d_1 (MaxPooling1 (None, 73, 32) 0 _________________________________________________________________ flatten (Flatten) (None, 2336) 0 _________________________________________________________________ dense (Dense) (None, 46) 107502 ================================================================= Total params: 332,856 Trainable params: 332,856 Non-trainable params: 0 _________________________________________________________________ history = model . fit ( ds_train , validation_data = ds_test , epochs = 10 ) Train for 281 steps, validate for 71 steps Epoch 1/10 281/281 [==============================] - 11s 37ms/step - loss:
…
